…
2025-10-15 13:30:16.537 | INFO     | lmms_engine.utils.logging_utils:info:12 - Overwrite autoregressive_config to {'embedding_dim': 1152, 'loss_weight': 1.0, 'num_heads': 8, 'num_layers': 3, 'mm_spatial_pool_stride': 4, 'mm_spatial_pool_mode': 'average', 'add_faster_video': True, 'frame_sampling_strategy': 'interleave', 'slow_frame_ratio': 0.25}
2025-10-15 13:30:16.539 | INFO     | lmms_engine.utils.logging_utils:info:12 - Model Structure: LlavaOnevisionForConditionalGeneration(
  (model): LlavaOnevisionModel(
    (vision_tower): SiglipVisionModel(
      (vision_model): SiglipVisionTransformer(
        (embeddings): SiglipVisionEmbeddings(
          (patch_embedding): Conv2d(3, 1152, kernel_size=(14, 14), stride=(14, 14), padding=valid)
          (position_embedding): Embedding(729, 1152)
        )
        (encoder): SiglipEncoder(
          (layers): ModuleList(
            (0-25): 26 x SiglipEncoderLayer(
              (layer_norm1): LayerNorm((1152,), eps=1e-06, elementwise_affine=True)
              (self_attn): SiglipAttention(
                (k_proj): Linear(in_features=1152, out_features=1152, bias=True)
                (v_proj): Linear(in_features=1152, out_features=1152, bias=True)
                (q_proj): Linear(in_features=1152, out_features=1152, bias=True)
                (out_proj): Linear(in_features=1152, out_features=1152, bias=True)
              )
              (layer_norm2): LayerNorm((1152,), eps=1e-06, elementwise_affine=True)
              (mlp): SiglipMLP(
                (activation_fn): PytorchGELUTanh()
                (fc1): Linear(in_features=1152, out_features=4304, bias=True)
                (fc2): Linear(in_features=4304, out_features=1152, bias=True)
              )
            )
          )
        )
        (post_layernorm): LayerNorm((1152,), eps=1e-06, elementwise_affine=True)
      )
    )
    (multi_modal_projector): LlavaOnevisionMultiModalProjector(
      (linear_1): Linear(in_features=1152, out_features=896, bias=True)
      (act): GELUActivation()
      (linear_2): Linear(in_features=896, out_features=896, bias=True)
    )
    (language_model): Qwen2Model(
      (embed_tokens): Embedding(152000, 896)
      (layers): ModuleList(
        (0-23): 24 x Qwen2DecoderLayer(
          (self_attn): Qwen2Attention(
            (q_proj): Linear(in_features=896, out_features=896, bias=True)
            (k_proj): Linear(in_features=896, out_features=128, bias=True)
            (v_proj): Linear(in_features=896, out_features=128, bias=True)
            (o_proj): Linear(in_features=896, out_features=896, bias=False)
          )
          (mlp): Qwen2MLP(
            (gate_proj): Linear(in_features=896, out_features=4864, bias=False)
            (up_proj): Linear(in_features=896, out_features=4864, bias=False)
            (down_proj): Linear(in_features=4864, out_features=896, bias=False)
            (act_fn): SiLU()
          )
          (input_layernorm): Qwen2RMSNorm((0,), eps=1e-06)
          (post_attention_layernorm): Qwen2RMSNorm((0,), eps=1e-06)
        )
      )
      (norm): Qwen2RMSNorm((0,), eps=1e-06)
      (rotary_emb): Qwen2RotaryEmbedding()
    )
  )
  (lm_head): Linear(in_features=896, out_features=152000, bias=False)
)
2025-10-15 13:30:16.540 | INFO     | lmms_engine.utils.logging_utils:info:12 - Model size: 0.0 B
2025-10-15 13:30:17.506 | INFO     | lmms_engine.utils.logging_utils:info:12 - Shuffle Dataset ...
Using a slow image processor as `use_fast` is unset and a slow processor was saved with this model. `use_fast=True` will be the default behavior in v4.52, even if the model was saved with a slow processor. This will result in minor differences in outputs. You'll still be able to use a slow processor with `use_fast=False`.
…
