…
2025-10-15 09:26:43.824 | INFO     | lmms_engine.utils.logging_utils:info:12 - Overwrite autoregressive_config to {'embedding_dim': 1152, 'loss_weight': 0.15, 'num_heads': 8, 'num_layers': 3, 'mm_spatial_pool_stride': 4, 'mm_spatial_pool_mode': 'average', 'add_faster_video': True, 'frame_sampling_strategy': 'interleave', 'slow_frame_ratio': 0.25}
2025-10-15 09:26:43.826 | INFO     | lmms_engine.utils.logging_utils:info:12 - Model Structure: LlavaOnevisionForConditionalGeneration(
  (model): LlavaOnevisionModel(
    (vision_tower): SiglipVisionModel(
      (vision_model): SiglipVisionTransformer(
        (embeddings): SiglipVisionEmbeddings(
          (patch_embedding): Conv2d(3, 1152, kernel_size=(14, 14), stride=(14, 14), padding=valid)
          (position_embedding): Embedding(729, 1152)
        )
        (encoder): SiglipEncoder(
          (layers): ModuleList(
            (0-25): 26 x SiglipEncoderLayer(
              (layer_norm1): LayerNorm((1152,), eps=1e-06, elementwise_affine=True)
              (self_attn): SiglipAttention(
                (k_proj): Linear(in_features=1152, out_features=1152, bias=True)
                (v_proj): Linear(in_features=1152, out_features=1152, bias=True)
                (q_proj): Linear(in_features=1152, out_features=1152, bias=True)
                (out_proj): Linear(in_features=1152, out_features=1152, bias=True)
              )
              (layer_norm2): LayerNorm((1152,), eps=1e-06, elementwise_affine=True)
              (mlp): SiglipMLP(
                (activation_fn): PytorchGELUTanh()
                (fc1): Linear(in_features=1152, out_features=4304, bias=True)
                (fc2): Linear(in_features=4304, out_features=1152, bias=True)
              )
            )
          )
        )
        (post_layernorm): LayerNorm((1152,), eps=1e-06, elementwise_affine=True)
      )
    )
    (multi_modal_projector): LlavaOnevisionMultiModalProjector(
      (linear_1): Linear(in_features=1152, out_features=3584, bias=True)
      (act): GELUActivation()
      (linear_2): Linear(in_features=3584, out_features=3584, bias=True)
    )
    (language_model): Qwen2Model(
      (embed_tokens): Embedding(152128, 3584)
      (layers): ModuleList(
        (0-27): 28 x Qwen2DecoderLayer(
          (self_attn): Qwen2Attention(
            (q_proj): Linear(in_features=3584, out_features=3584, bias=True)
            (k_proj): Linear(in_features=3584, out_features=512, bias=True)
            (v_proj): Linear(in_features=3584, out_features=512, bias=True)
            (o_proj): Linear(in_features=3584, out_features=3584, bias=False)
          )
          (mlp): Qwen2MLP(
            (gate_proj): Linear(in_features=3584, out_features=18944, bias=False)
            (up_proj): Linear(in_features=3584, out_features=18944, bias=False)
            (down_proj): Linear(in_features=18944, out_features=3584, bias=False)
            (act_fn): SiLU()
          )
          (input_layernorm): Qwen2RMSNorm((3584,), eps=1e-06)
          (post_attention_layernorm): Qwen2RMSNorm((3584,), eps=1e-06)
        )
      )
      (norm): Qwen2RMSNorm((3584,), eps=1e-06)
      (rotary_emb): Qwen2RotaryEmbedding()
    )
  )
  (lm_head): Linear(in_features=3584, out_features=152128, bias=False)
)
2025-10-15 09:26:43.828 | INFO     | lmms_engine.utils.logging_utils:info:12 - Model size: 8.030807584 B
Loading checkpoint shards: 100%|██████████| 4/4 [00:11<00:00,  2.51s/it]Loading checkpoint shards: 100%|██████████| 4/4 [00:11<00:00,  2.92s/it]
Loading checkpoint shards: 100%|██████████| 4/4 [00:11<00:00,  2.51s/it]Loading checkpoint shards: 100%|██████████| 4/4 [00:11<00:00,  2.91s/it]
…
